tflite/model.tflite (tflite, 290700 bytes, 14 tensors)

sequential/conv2d/BiasAdd/ReadVariableOp f4 [8]
-0.0037968156 -0.0030113198 -0.016995892 -0.007143099 0.050797556 -0.007887413 0.02186398 0.05883138
00000000: ffd3 78bb 9059 45bb f83a 8bbc a810 eabb
00000010: 1911 503d 353a 01bc 171c b33c 2cf9 703d

sequential/conv2d_1/BiasAdd/ReadVariableOp f4 [16]
-0.016440004 0.008933505 0.017604135 -0.040286403 0.038138106 0.040736504 0.14558168 -0.011250869
0.02547536 -0.020954974 -0.035348166 0.01366732 -0.04496215 0.03948171 -0.01079666 -0.0005840327
00000000: 30ad 86bc d65d 123c 8c36 903c 5b03 25bd
00000010: b436 1c3d 52db 263d 5d13 153e 9155 38bc
00000020: b4b1 d03c c4a9 abbc 3dc9 10bd e5ec 5f3c
00000030: 3b2a 38bd 93b7 213d 79e4 30bc c519 19ba

sequential/conv2d_2/BiasAdd/ReadVariableOp f4 [32]
-0.010508553 0.13673022 0.014256646 -0.059294634 -0.08311648 -0.022154596 0.016039452 -0.021357847
0.006147153 -0.008496491 0.013224808 -0.030003635 0.023107514 -0.061143495 0.031434204 -0.0133555895
0.014492 -0.028626343 -0.0061989645 0.06646257 0.012128745 -0.066246696 -0.10387618 -0.017926825
-0.028100815 -0.053587142 -0.039385095 0.0018828886 -0.07440055 -0.07445593 0.008108343 -0.043515086
00000000: 112c 2cbc 0203 0c3e b594 693c eede 72bd
00000010: f938 aabd 8e7d b5bc 2b65 833c a7f6 aebc
00000020: 0f6e c93b de34 0bbc ddac 583c 2fca f5bc
00000030: f84b bd3c 9a71 7abd 27c1 003d 67d1 5abc
00000040: db6f 6d3c cb81 eabc af20 cbbb 871d 883d
00000050: a5b7 463c 59ac 87bd 09bd d4bd 47db 92bc
00000060: ae33 e6bc 317e 5bbd 4452 21bd 42cb f63a
00000070: 515f 98bd 5a7c 98bd dbd8 043c e03c 32bd

sequential/conv2d_3/BiasAdd/ReadVariableOp f4 [32]
-0.002005876 0.015743762 -0.068423055 -0.05754973 -0.033337332 -0.098517165 -0.035072282 0.097921476
-0.0039060663 -0.056620058 -0.017061593 -0.035906598 -0.06104706 -0.010581626 0.06336697 -0.064595245
-0.059565566 -0.03866929 -0.0034386674 -0.091442525 0.06151227 0.025934674 0.054858956 -0.08563142
-0.045772593 -0.08869031 -0.059850506 -0.094413444 -0.10104119 -0.01813463 -0.04981396 -0.09934691
00000000: 0475 03bb 10f9 803c 6321 8cbd 44b9 6bbd
00000010: ba8c 08bd 5ec3 c9bd f4a7 0fbd 0e8b c83d
00000020: ebfc 7fbb 6fea 67bd c1c4 8bbc cc12 13bd
00000030: 7b0c 7abd 8e5e 2dbc 8bc6 813d 834a 84bd
00000040: 06fb 73bd b063 1ebd 445b 61bb 3846 bbbd
00000050: 4af4 7b3d f474 d43c c9b3 603d 875f afbd
00000060: 0b7c 3bbd 44a3 b5bd ce25 75bd d65b c1bd
00000070: afee cebd 138f 94bc b909 4cbd 6576 cbbd

sequential/conv2d_4/BiasAdd/ReadVariableOp f4 [64]
-0.070235334 -0.028318046 -0.036971092 -0.04067967 -0.06495844 -0.04094624 0.00748359 0.017918743
-0.04619144 -0.06506786 -0.084633216 0.007950545 0.024728986 0.025718182 -0.07773039 -0.006980679
-0.07773442 -0.027523892 -0.020331258 -0.11091517 0.05679573 -0.033862475 0.0041434397 -0.087514214
-0.045351177 0.008413447 0.03535948 -0.0730709 -0.10407218 -0.00053842005 -0.059368916 -0.033120487
-0.06520536 -0.036881596 -0.027795482 -0.033985984 -0.09553204 -0.025951315 -0.032749172 0.051533025
-0.058549553 0.034561124 0.04142049 0.02459139 -0.08293035 -0.017761245 -0.04412169 -0.11478054
0.09759704 0.006492082 -0.06729593 -0.043644972 0.090583876 -0.018879257 0.005438684 -0.08111497
-0.10254891 -0.035892755 -0.03006937 -0.0034126574 -0.005614992 -0.042944446 0.0671611 -0.010193791
00000000: 8bd7 8fbd 3ffb e7bc 006f 17bd ba9f 26bd
00000010: ee08 85bd 3fb7 27bd e738 f53b 54ca 923c
00000020: 3c33 3dbd 4c42 85bd 2e54 adbd 0143 023c
00000030: 7194 ca3c f0ae d23c 1c31 9fbd 2ebe e4bb
00000040: 3933 9fbd c979 e1bc bd8d a6bc 7e27 e3bd
00000050: a4a2 683d 61b3 0abd b1c5 873b a73a b3bd
00000060: 28c2 39bd 8ed8 093c 1ad5 103d 32a6 95bd
00000070: cc23 d5bd c224 0dba d22c 73bd 59a9 07bd
00000080: 638a 85bd 2811 17bd 5ab3 e3bc e334 0bbd
00000090: 4da6 c3bd da97 d4bc ff23 06bd 4b14 533d
000000a0: a8d1 6fbd f78f 0d3d 88a8 293d e273 c93c
000000b0: 63d7 a9bd 0880 91bc f2b8 34bd 0f12 ebbd
000000c0: f5e0 c73d 88bb d43b 73d2 89bd 12c5 32bd
000000d0: 0a84 b93d aca8 9abc fd36 b23b 9b1f a6bd
000000e0: 2a05 d2bd 4804 13bd 0a54 f6bc e4a6 5fbb
000000f0: f8fd b7bb 84e6 2fbd c28b 893d dc03 27bc

sequential/conv2d/Conv2D f4 [8, 3, 3, 3]
0.21592866 -0.19276638 -0.21349238 0.01604725 0.09844268 0.12210576 0.32470062 -0.15524289
0.034589443 -0.12538433 -0.281748 -0.18123849 -0.049273074 -0.07315997 -0.19343174 0.15560608
-0.19632325 -0.03521985 -0.11492829 0.0337634 -0.06664646 0.1364906 -0.1444994 0.03702364
0.22979729 0.21090303 -0.022067236 -0.27022573 -0.008573803 0.08336119 0.15219282 -0.021098027
0.12695904 0.11135032 0.0716249 0.19330823 -0.115319066 -0.24986376 -0.14415929 0.22792001
-0.05837156 0.014786711 0.036359806 -0.16312028 0.26051936 -0.1368763 -0.13239491 -0.09550722
0.027943032 0.059230417 0.037648737 -0.14925593 0.15779693 -0.038453773 -0.33069867 -0.06282384
-0.073072195 -0.26431042 0.22410534 -0.02041926 -0.06697769 -0.0771561 0.108852684 -0.13336296
0.09802304 0.1850538 -0.08907911 0.36015323 0.1072284 0.005710398 -0.03348887 0.014835051
0.25184563 0.3342983 0.08505947 0.04066141 0.1537606 -0.027707862 0.1362265 0.17132661
0.050077222 0.4746053 -0.051346473 0.4279934 0.20700698 -0.21068354 0.20208867 0.1800382
-0.0812838 0.24426319 0.16488428 -0.020647474 0.25875884 0.3577872 -0.26137426 0.37538162
0.15277751 -0.23695818 0.4093716 0.22120123 -0.08911227 0.031591043 0.3043614 -0.19979769
0.17172724 0.23080286 -0.3999928 -0.08918315 -0.106858864 -0.4402639 -0.3876319 -0.3973629
-0.4897878 -0.1913814 -0.13633868 0.021966226 0.153058 -0.063618176 0.050863985 -0.01687724
-0.09476309 -0.011403594 0.106281705 0.29988933 0.26713327 0.0007447911 0.3024721 -0.113650896
0.34389198 0.14980575 0.12006801 0.18298176 0.1800399 -0.0137658315 0.13750815 -0.12232007
-0.058081716 0.39212117 0.010239171 -0.1469481 0.16409582 0.11868661 -0.053970434 0.029191988
-0.024001896 -0.12575841 0.39589313 -0.13934304 0.123459704 0.4490437 0.0004582951 0.046813432
0.27561823 0.086419664 -0.36078227 -0.10436306 -0.042333707 0.039867543 0.23683585 0.17834823
0.08654084 0.18424243 0.13357337 -0.15245336 0.10022984 0.09305441 0.12676398 -0.08367986
0.12565161 -0.23958836 -0.08615035 0.07435491 -0.0481861 0.13619287 0.15676029 -0.291719
-0.27933037 0.1834376 0.102283746 -0.31556696 0.19917566 0.0669316 -0.23644944 0.34848952
-0.24430335 -0.1448261 0.25100648 -0.27050498 -0.3427127 -0.105000615 0.18208832 0.23523425
-0.267562 -0.05482257 -0.17564869 0.16033234 -0.13638252 0.1412209 0.26673958 0.15081313
0.061065603 -0.09510963 -0.1455892 0.027923888 -0.17617847 0.045897402 -0.16547726 -0.06423694
0.27349138 0.29484972 -0.24356456 -0.22526883 0.19164276 -0.15486118 -0.024681393 -0.1470478
00000000: 671c 5d3e 8d64 45be bf9d 5abe 8675 833c
00000010: 519c c93d 9612 fa3d 293f a63e fef7 1ebe
00000020: a9ad 0d3d c064 00be 4641 90be 9596 39be
00000030: 90d2 49bd e5d4 95bd f812 46be 3357 1f3e
00000040: f608 49be b042 10bd 865f ebbd 7e4b 0a3d
00000050: f07d 88bd 31c4 0b3e a7f7 13be 1aa6 173d
00000060: fb4f 6b3e f7f6 573e 59c6 b4bc 075b 8abe
00000070: 2379 0cbc 46b9 aa3d 6fd8 1b3e c5d5 acbc
00000080: 8d01 023e a30b e43d 13b0 923d 98f2 453e
00000090: 672c ecbd 49dc 7fbe 7e9e 13be dd63 693e
000000a0: 0417 6fbd f643 723c 05ee 143d 0109 27be
000000b0: cb62 853e 4d29 0cbe 8892 07be 4a99 c3bd
000000c0: c9e8 e43c 989b 723d 9035 1a3d 8cd6 18be
000000d0: 8595 213e b481 1dbd 5651 a9be c9a9 80bd
000000e0: e0a6 95bd b253 87be df7b 653e 4b46 a7bc
000000f0: 992b 89bd 0404 9ebd 28ee de3d 4d90 08be
00000100: 4ec0 c83d be7e 3d3e 1c6f b6bd 0166 b83e
00000110: 909a db3d 4a1e bb3b a02b 09bd b70e 733c
00000120: e9f1 803e 2629 ab3e a933 ae3d 948c 263d
00000130: 6b73 1d3e 99fb e2bc f67e 0b3e 3e70 2f3e
00000140: c61d 4d3d 77ff f23e ae50 52bd f321 db3e
00000150: a3f9 533e 6dbd 57be 55f0 4e3e ef5b 383e
00000160: 1f78 a6bd 2120 7a3e 6dd7 283e e424 a9bc
00000170: 0a7c 843e e22f b73e d9d2 85be 0532 c03e
00000180: b571 1c3e 2aa5 72be 2899 d13e 9382 623e
00000190: 7e80 b6bd 9c65 013d 42d5 9b3e c497 4cbe
000001a0: 44d9 2f3e 9657 6c3e dbcb ccbe a8a5 b6bd
000001b0: d2d8 dabd 456a e1be b077 c6be 2673 cbbe
000001c0: 77c5 fabe 7cf9 43be 5e9c 0bbe 84f2 b33c
000001d0: 3dbb 1c3e 3f4a 82bd c156 503d 2342 8abc
000001e0: 2713 c2bd 24d6 3abc 39aa d93d 188b 993e
000001f0: b1c5 883e 163e 433a a0dd 9a3e cdc1 e8bd
00000200: 9c12 b03e ae66 193e 38e6 f53d 925f 3b3e
00000210: 615c 383e 158a 61bc f0ce 0c3e f282 fabd
00000220: 18e7 6dbd 1bc4 c83e 32c2 273c 9079 16be
00000230: bc08 283e f711 f33d 1a10 5dbd 0924 ef3c
00000240: a09f c4bc d0c6 00be 81b2 ca3e f1af 0ebe
00000250: 71d8 fc3d 0ee9 e53e 5447 f039 71bf 3f3d
00000260: d51d 8d3e cbfc b03d 74b8 b8be 4dbc d5bd
00000270: 1c66 2dbd 264c 233d 1985 723e eba0 363e
00000280: 533c b13d 0caa 3c3e 75c7 083e bc1c 1cbe
00000290: 4d45 cd3d 4f93 be3d 6bce 013e 5960 abbd
000002a0: d1aa 003e a756 75be 986f b0bd 6347 983d
000002b0: ca5e 45bd 2576 0b3e c585 203e 315c 95be
000002c0: 6404 8fbe 11d7 3b3e 247a d13d fe91 a1be
000002d0: b4f4 4b3e 6f13 893d cd1f 72be 386d b23e
000002e0: a82a 7abe 4b4d 14be ec83 803e a17f 8abe
000002f0: 0a78 afbe 900a d7bd 5c75 3a3e 3fe1 703e
00000300: e3fd 88be a28d 60bd 40dd 33be 292e 243e
00000310: dca7 0bbe 369c 103e 1792 883e c26e 1a3e
00000320: ed1f 7a3d d6c8 c2bd 5615 15be a3c0 e43c
00000330: 2168 34be eafe 3b3d df72 29be a88e 83bd
00000340: 1007 8c3e 8bf6 963e fd68 79be dfac 66be
00000350: 003e 443e ee93 1ebe a230 cabc b393 16be

sequential/conv2d_1/Conv2D f4 [16, 3, 3, 8]
0.014376399 -0.0872176 -0.11564721 -0.03405061 0.20291817 -0.16865768 0.2259227 0.4612441
0.07692096 0.33288342 -0.18156861 -0.15602297 0.1974996 0.06716891 0.12027996 -0.01689948
0.029569272 0.1563621 -0.10511237 0.032176625 0.28252196 0.044624712 0.16125844 0.045810577
-0.09522314 -0.17433156 0.0584436 -0.08280859 0.01306017 0.027907632 0.032335628 0.40330547
0.27873108 0.0685435 0.03231167 0.040284134 0.3506943 0.08945631 -0.19278996 0.014412134
0.03382389 -0.031763688 0.12630525 -0.021961931 0.02510813 0.0133496225 -0.16868064 -0.1315755
-0.10344914 -0.21434695 0.24587932 0.07698238 0.21532974 -0.111229345 0.07270277 0.08555594
-0.04616004 0.20955402 0.109584235 -0.09097809 0.15738344 0.07746559 -0.15643822 -0.061531045
0.00021899329 0.027307272 0.17327076 0.15723501 -0.027831152 0.11507141 -0.18948135 -0.22289813
-0.17397065 0.14241578 -0.08641832 0.103258766 -0.024488969 0.12832505 0.0042971955 0.009776622
0.023646737 -0.14669137 0.06436282 -0.123326674 0.21500286 -0.081496224 0.069645345 -0.009676446
-0.047608197 0.041777566 -0.100217104 -0.14793323 0.16757964 0.1520897 -0.1881194 0.03471249
-0.2410701 0.29774722 0.15488717 0.18093438 0.117383346 0.054709278 -0.3185886 -0.069524705
-0.11955562 -0.11413271 0.12583962 -0.027077992 -0.14398101 0.1706718 -0.015880315 -0.08751228
0.1050586 0.06671973 -0.14840956 0.0610032 -0.035198532 0.06958052 -0.10807552 -0.2139004
0.046467 0.15658373 -0.12103441 0.05959048 -0.16031004 0.19348586 -0.24713647 0.09614444
0.054293025 0.2014335 -0.20331945 0.042454984 -0.18595739 0.21221608 -0.075480565 0.09618391
0.06957824 0.1124215 -0.105462216 -0.11063252 -0.10869201 0.2082363 -0.1193194 -0.06597053
-0.309353 -0.061796755 0.18892545 0.13572447 -0.14689536 -0.07111936 -0.04310898 -0.012472968
0.21908253 0.0904542 -0.10853632 -0.07380529 0.06500332 -0.14555448 0.1898036 0.2350682
0.18436049 0.14433642 0.11980588 0.05152135 -0.06615546 0.069057174 -0.33452514 0.053857267
-0.13356717 -0.464477 -0.11162746 0.07282165 -0.2148371 -0.004638924 0.20561866 0.1033506
0.01973017 0.24412546 -0.10620819 -0.046756238 0.20543967 -0.10460711 -0.028689023 0.22194909
-0.031552546 0.34300023 0.001719899 -0.05911533 0.13178769 0.1319075 -0.25203606 -0.14789043
-0.23471127 -0.2788435 0.03046992 0.09643046 -0.12852462 -0.022058917 0.14015761 0.34823757
0.08143469 0.2031644 0.050115287 -0.10091432 0.18748578 -0.08377446 -0.011582546 0.25254163
0.115413845 0.19772099 0.01827806 -0.0034169985 -0.06465441 -0.04054195 -0.08625598 0.03824428
-0.30041885 -0.24225232 -0.035141777 0.054468762 0.25034013 -0.18051745 -0.19385664 0.16178533
0.013725526 0.093729615 -0.009029603 -0.32455477 0.11515032 -0.07115681 -0.19720842 0.082646005
-0.12404312 0.033221755 -0.025039464 -0.16571304 0.19664927 -0.03033977 -0.21817254 0.16294108
-0.20632894 -0.10827907 0.07944535 -0.08595251 -0.009642437 0.15992188 0.17666775 -0.11418355
-0.20005566 -0.05249702 0.1559084 -0.0849572 0.09430326 -0.12833063 0.13328902 0.11328257
00000000: fd8a 6b3c 249f b2bd 72d8 ecbd a778 0bbd
00000010: c8c9 4f3e 99b4 2cbe 4858 673e 3028 ec3e
00000020: bc88 9d3d b26f aa3e 1fed 39be 7cc4 1fbe
00000030: 563d 4a3e da8f 893d 5755 f63d c770 8abc
00000040: 423b f23c 631d 203e 2745 d7bd a3cb 033d
00000050: b8a6 903e 67c8 363d ef20 253e dfa3 3b3d
00000060: 5a04 c3bd f983 32be 8e62 6f3d 8d97 a9bd
00000070: 53fa 553c 8c9e e43c 5d72 043d 0e7e ce3e
00000080: d7b5 8e3e 8960 8c3d 3e59 043d fa00 253d
00000090: 348e b33e df34 b73d bb6a 45be df20 6c3c
000000a0: eb8a 0a3d a41a 02bd 2a56 013e 82e9 b3bc
000000b0: 91af cd3c 60b8 5a3c 9eba 2cbe babb 06be
000000c0: 25dd d3bd c47d 5bbe cac7 7b3e f0a8 9d3d
000000d0: 667f 5c3e 36cc e3bd 31e5 943d f437 af3d
000000e0: 4f12 3dbd 5495 563e b36d e03d b952 babd
000000f0: 2029 213e 47a6 9e3d 5731 20be fa07 7cbd
00000100: 90a1 6539 80b3 df3c e46d 313e 3702 213e
00000110: 28fe e3bc 8faa eb3d 6607 42be 683f 64be
00000120: 5d25 32be 71d5 113e 17fc b0bd 5579 d33d
00000130: 179d c8bc a467 033e 7dcf 8c3b 202e 203c
00000140: cdb6 c13c 4336 16be a7d0 833d b292 fcbd
00000150: b629 5c3e 7ee7 a6bd 38a2 8e3d f589 1ebc
00000160: d000 43bd f41e 2b3d a03e cdbd cf7b 17be
00000170: ff99 2b3e 67bd 1b3e 5fa2 40be af2e 0e3d
00000180: 15db 76be 5372 983e be9a 1e3e dd46 393e
00000190: ae66 f03d d616 603d 0c1e a3be f862 8ebd
000001a0: 94d9 f4bd 69be e9bd 1adc 003e aad2 ddbc
000001b0: c26f 13be 97c4 2e3e 6f17 82bc a339 b3bd
000001c0: f728 d73d 5ba4 883d adf8 17be 7ede 793d
000001d0: 562c 10bd 3b80 8e3d b356 ddbd b508 5bbe
000001e0: 2e54 3e3d 7c57 203e e4e0 f7bd 2615 743d
000001f0: 5128 24be 2821 463e 5811 7dbe 60e7 c43d
00000200: 5d62 5e3d 9544 4e3e f932 50be 47e5 2d3d
00000210: 9d6b 3ebe 2c4f 593e 8e95 9abd 12fc c43d
00000220: 097f 8e3d 3e3d e63d 93fc d7bd 4d93 e2bd
00000230: eb99 debd e63b 553e bb5d f4bd 8f1b 87bd
00000240: 8463 9ebe 981e 7dbd ac75 413e 5bfb 0a3e
00000250: bd6b 16be 07a7 91bd 0b93 30bd 6b5b 4cbc
00000260: 2c57 603e 0d40 b93d 4a48 debd 3a27 97bd
00000270: 7620 853d 3c0c 15be e05b 423e b8b5 703e
00000280: ffc8 3c3e edcc 133e c95c f53d 0d08 533d
00000290: 847c 87bd d96d 8d3d e146 abbe 7099 5c3d
000002a0: d5c5 08be eecf edbe f09c e4bd 8423 953d
000002b0: 42fe 5bbe 1d02 98bb b38d 523e 7ba9 d33d
000002c0: 2aa1 a13c 06fc 793e ae83 d9bd 7883 3fbd
000002d0: c75e 523e 413c d6bd 3e05 ebbc 9f46 633e
000002e0: 3e3d 01bd ba9d af3e 3c6e e13a eb22 72bd
000002f0: 5af3 063e c212 073e df0a 81be 9770 17be
00000300: 2758 70be 93c4 8ebe 0e9c f93c 557d c53d
00000310: f59b 03be e7b4 b4bc 7a85 0f3e 324c b23e
00000320: 3bc7 a63d 540a 503e b045 4d3d 2bac cebd
00000330: 46fc 3f3e f291 abbd b8c4 3dbc 234d 813e
00000340: 185e ec3d 5f77 4a3e dfbb 953c b9ef 5fbb
00000350: 8869 84bd 510f 26bd faa6 b0bd 09a6 1c3d
00000360: 80d0 99be fe10 78be d3f0 0fbd a31a 5f3d
00000370: 952c 803e 91d9 38be 5b82 46be 0eab 253e
00000380: 07e1 603c 50f5 bf3d e6f0 13bc 0b2c a6be
00000390: eed3 eb3d a9ba 91bd 01f1 49be 4f42 a93d
000003a0: 520a febd 8913 083d 901f cdbc aeb0 29be
000003b0: 6d5e 493e 1c8b f8bc 9f68 5fbe 07da 263e
000003c0: e547 53be 6bc1 ddbd 3eb4 a23d df07 b0bd
000003d0: 50fb 1dbc 90c2 233e 64e8 343e 11d9 e9bd
000003e0: 64db 4cbe 1e07 57bd 74a6 1f3e 0afe adbd
000003f0: 1122 c13d 1b69 03be eb7c 083e b100 e83d

sequential/conv2d_2/Conv2D f4 [32, 3, 3, 16]
0.099504694 0.062293004 0.270563 -0.037945513 0.0023132325 0.052832883 -0.32956004 -0.00652798
0.0055488157 0.030727759 -0.02312495 -0.07210227 -0.053120118 0.0060082064 -0.001743641 0.109902196
0.01105319 0.08321955 -0.14703186 -0.04495619 0.12762284 -0.017739799 -0.17853533 0.07922143
0.030142024 -0.02645968 0.03370637 0.13531536 0.10845846 -0.07138649 -0.11310579 -0.023790348
-0.0076661776 0.092164725 0.3604314 0.19389947 -0.04331035 0.017923402 -0.10606527 0.29818496
0.094267465 -0.0066676666 0.087066874 0.054538358 -0.051302705 0.07093723 0.082368195 0.2038765
-0.032908447 -0.09487633 0.26862305 0.033091877 -0.09543478 -0.12390648 -0.08458017 0.1018442
-0.048379872 -0.09732416 0.1110753 0.03797563 0.066787906 -0.107281946 0.095138915 0.056579784
-0.07459376 -0.04003659 0.0015237934 -0.012404558 0.006065365 0.07012294 -0.1824001 -0.06568846
0.1474926 0.10663132 0.06997909 -0.03547319 -0.054942567 0.07996636 -0.04319466 0.09799128
-0.0063581485 -0.030469814 0.24868363 0.06222489 -0.07664269 -0.060688354 -0.06779592 0.13973755
-0.08578044 -0.0032741383 0.06449578 0.07262567 0.06944847 0.09194538 -0.17517975 -0.085825555
-0.0044267816 0.031289767 0.052463666 0.16763924 -0.10410852 -0.068938196 -0.102529526 0.14199238
-0.0013271022 -0.023679687 0.04214225 0.057695236 -0.19105054 -0.07607785 0.04196766 -0.07265064
0.079105765 -0.0077270847 0.01474714 -0.048310574 -0.051200226 0.015323096 -0.24884087 -0.06319999
-0.10546859 0.061422944 0.15399176 0.041113973 -0.046389643 -0.005813333 0.022391511 0.031547807
0.14059442 0.09471629 0.006869597 0.12780608 0.04668725 -0.0612815 -0.27226183 0.12833016
0.014696392 0.0048877313 -0.06367646 0.034201488 -0.09134586 0.17334712 -0.071289755 0.08957977
0.042127326 0.011656921 0.21026953 -0.016571103 0.0030372327 -0.097740844 0.0014858642 0.19128035
0.045103148 -0.032853864 0.20105617 0.01567169 -0.27895427 -0.009939762 0.1229686 0.22486164
-0.008673155 0.19258572 0.069205806 -0.07644776 0.13912356 -0.14603506 0.17062919 0.0588592
0.12030157 -0.1199653 0.010165115 -0.040529035 -0.21892594 0.082305305 -0.0780019 0.0135147
0.16273703 0.1876646 0.095511824 0.04639954 -0.07176344 0.007540357 0.16036141 0.18394907
0.09767398 -0.098911054 0.044913623 0.111933455 -0.30304605 0.14177181 0.16271532 -0.06247021
0.095819466 0.0994495 0.0655706 -0.109732725 -0.045101073 -0.033886116 0.11665116 -0.020208536
-0.026865419 -0.15764186 0.023442717 -0.060187787 -0.18458033 -0.038328487 0.131959 0.02316652
0.065027 -0.02048353 -0.005011704 -0.14785007 -0.01939154 -0.19829464 0.08665666 0.0015507815
0.109145924 -0.32301724 -0.07133418 -0.110048376 -0.34083596 -0.13964252 0.04894937 0.19221605
0.13256845 0.02619093 0.053885274 0.002657209 -0.035210665 -0.13875496 0.029704718 0.11972166
0.14908345 -0.06727528 -0.046176083 0.07788054 -0.23257872 0.12327755 0.037514452 -0.04026938
0.010471344 -0.14734322 0.028432086 0.014370892 -0.014980877 0.0044767703 0.1865935 0.073151454
0.06580893 -0.061685987 -0.3674062 -0.13014147 -0.2614944 -0.14092614 0.1350163 0.003711029
00000000: 1ec9 cb3d f326 7f3d 3c87 8a3e c16c 1bbd
00000010: 9a99 173b 4b67 583d 18bc a8be aae8 d5bb
00000020: d7d2 b53b c8b8 fb3c 8970 bdbc 5baa 93bd
00000030: 7b94 59bd 7de0 c43b e28a e4ba 6714 e13d
00000040: 7018 353c 036f aa3d 858f 16be fb23 38bd
00000050: 90af 023e 0e53 91bc f7d1 36be d83e a23d
00000060: 68ec f63c f9c1 d8bc b10f 0a3d 1c90 0a3e
00000070: 781f de3d 1433 92bd 02a4 e7bd fae3 c2bc
00000080: 8f34 fbbb dcc0 bc3d 778a b83e 958d 463e
00000090: 3266 31bd 19d4 923c c038 d9bd b3ab 983e
000000a0: 4d0f c13d 717c dabb 1e50 b23d 9d63 5f3d
000000b0: c922 52bd 8a47 913d a8b0 a83d 00c5 503e
000000c0: 02cb 06bd 854e c2bd f688 893e 598b 073d
000000d0: 4f73 c3bd aec2 fdbd 5e38 adbd b193 d03d
000000e0: f929 46bd e451 c7bd 727b e33d 568c 1b3d
000000f0: 19c8 883d a3b6 dbbd 31d8 c23d 34c0 673d
00000100: 9dc4 98bd 68fd 23bd 06ba c73a 7d3c 4bbc
00000110: f8bf c63b 9e9c 8f3d 18c7 3abe ac87 86bd
00000120: 4d08 173e 8661 da3d 3251 8f3d 564c 11bd
00000130: 750b 61bd 67c5 a33d e2ec 30bd a7af c83d
00000140: 0458 d0bb d59b f9bc eca6 7e3e 87df 7e3d
00000150: d8f6 9cbd 5a94 78bd 96d8 8abd 5c17 0f3e
00000160: a8ad afbd ed92 56bb 5d16 843d c4bc 943d
00000170: 003b 8e3d dc4d bc3d 5262 33be 4fc5 afbd
00000180: 890e 91bb b329 003d 24e4 563d 9fa9 2b3e
00000190: d936 d5bd 782f 8dbd 00fb d1bd 7366 113e
000001a0: 29f2 adba e7fb c1bc 5a9d 2c3d d751 6c3d
000001b0: c1a2 43be b4ce 9bbd 48e6 2b3d dcc9 94bd
000001c0: 3402 a23d 7c33 fdbb fd9d 713c 4fe1 45bd
000001d0: 54b7 51bd b90d 7b3c 24d0 7ebe ff6e 81bd
000001e0: ebff d7bd a096 7b3d 04b0 1d3e 2067 283d
000001f0: 1103 3ebd c67d bebb 676e b73c 4638 013d
00000200: fcf7 0f3e 9dfa c13d 5b1a e13b 99df 023e
00000210: 213b 3f3d 4f02 7bbd e765 8bbe fb68 033e
00000220: 23c9 703c 4329 a03b ce68 82bd dc16 0c3d
00000230: 8a13 bbbd e881 313e 5d00 92bd 9975 b73d
00000240: b48d 2c3d acfc 3e3c e550 573e 1fc0 87bc
00000250: 4f0c 473b 5a2c c8bd 54c1 c23a ffde 433e
00000260: 14be 383d c691 06bd abe1 4d3e eb61 803c
00000270: 18d3 8ebe 62da 22bc f6d6 fb3d 2142 663e
00000280: d919 0ebc 3135 453e c6bb 8d3d a590 9cbd
00000290: 6876 0e3e 378a 15be 6bb9 2e3e 5816 713d
000002a0: ab60 f63d 5eb0 f5bd 958b 263c c601 26bd
000002b0: 1f2e 60be af8f a83d 76bf 9fbd c36c 5d3c
000002c0: 89a4 263e 262b 403e b49b c33d 720d 3e3d
000002d0: b6f8 92bd 1915 f73b c835 243e 255d 3c3e
000002e0: 4c09 c83d e191 cabd 59f7 373d 5e3d e53d
000002f0: da28 9bbe a12c 113e d89e 263e c3e0 7fbd
00000300: ff3c c43d 2eac cb3d e149 863d 8dbb e0bd
00000310: e7bb 38bd 2bcc 0abd cee6 ee3d 5f8c a5bc
00000320: de14 dcbc de6c 21be f10a c03c 7887 76bd
00000330: a002 3dbe 55fe 1cbd 4320 073e b7c7 bd3c
00000340: e02c 853d 13cd a7bc 3839 a4bb 0266 17be
00000350: 02db 9ebc c00d 4bbe 0c79 b13d 9843 cb3a
00000360: e687 df3d 8462 a5be a817 92bd 0b61 e1bd
00000370: 0d82 aebe 73fe 0ebe 227f 483d 49d4 443e
00000380: 06c0 073e 5c8e d63c ceb6 5c3d 9224 2e3b
00000390: 0f39 10bd c815 0ebe 4f57 f33c a130 f53d
000003a0: 55a9 183e 9fc7 89bd 2223 3dbd d57f 9f3d
000003b0: 1e29 6ebe f178 fc3d c1a8 193d 81f1 24bd
000003c0: 0090 2b3c 24e1 16be 68ea e83c e473 6b3c
000003d0: 5a72 75bc dfb1 923b 5e12 3f3e 6ed0 953d
000003e0: d5c6 863d 72aa 7cbd aa1c bcbe ce43 05be
000003f0: 98e2 85be f14e 10be b741 0a3e bc34 733b

sequential/conv2d_3/Conv2D f4 [32, 3, 3, 32]
-0.06099601 -0.035663143 -0.10239187 0.032364335 -0.14337948 -0.006107936 0.14797296 0.23519394
-0.028826086 0.0019059567 -0.034218393 0.059518576 -0.041075997 0.041375518 -0.044398185 -0.086055174
-0.04661972 -0.059841447 -0.08295631 0.16657276 0.020749066 -0.0075473455 0.08591551 -0.18006901
-0.25589436 0.080840446 -0.07471136 -0.016482959 -0.021414727 -0.02522612 -0.08824404 -0.2657027
0.16716118 -0.08068757 -0.23568365 -0.10506926 -0.32856363 -0.07566015 -0.06280622 0.08127123
0.08925069 -0.06981139 -0.037466884 -0.048868053 -0.071328625 -0.09460984 -0.13915986 -0.08468964
0.035698134 -0.033337332 -0.0029390056 -0.0044589327 0.054737918 0.14111923 0.15266046 -0.1848416
-0.04642064 0.026844895 -0.09139453 -0.1833014 0.028794643 -0.06441287 -0.05112188 -0.10662353
0.03498622 -0.19326912 0.049087998 0.005981834 -0.21205309 -0.07444534 0.083494015 -0.035432078
0.19196945 -0.0032664097 0.12798113 0.07740721 0.03532704 -0.17904575 0.031664886 0.049244598
-0.019485373 -0.18344058 0.055909462 0.033176627 -0.05543113 -0.020375913 0.17399889 -0.06585727
-0.071218856 -0.16378596 -0.16390416 -0.1042331 -0.08660274 -0.06429252 -0.014733489 -0.16275145
-0.022231687 -0.13608712 -0.15710142 0.06313644 -0.08775518 0.12629981 0.0073013296 0.09091058
-0.082796454 0.1592938 -0.1531739 0.08790327 0.034280226 0.04229771 -0.03709275 0.040987894
0.0022613017 -0.11397295 -0.053819954 -0.0330276 0.08984151 0.060566004 0.029242408 -0.094904855
-0.11135238 -0.13131437 0.03259396 0.055216685 0.023870429 0.10213621 -0.12777296 -0.15269922
0.08371075 -0.23595648 -0.028208794 -0.15669386 -0.26955402 -0.16296405 -0.090547435 0.058808457
0.023902798 -0.04220566 0.04411892 -0.09469817 0.020795787 0.021791983 0.06544372 -0.03635693
0.04528871 -0.24018899 0.06638829 -0.0744033 0.1528888 -0.070704155 0.19045083 -0.11513451
-0.19380824 -0.17308775 -0.16008967 -0.03201491 -0.10352324 -0.040368143 -0.11127483 -0.25243765
-0.005949377 -0.1460836 0.043569755 -0.120805 -0.18147676 0.14648971 -0.10546051 -0.10598992
0.1689238 -0.05799165 0.24975948 0.15940264 0.061903156 -0.06526214 0.029503366 0.00042958886
0.13614075 -0.09705274 0.117558986 0.033789825 0.11087752 -0.21025749 -0.03634179 0.069309816
-0.044321876 -0.11840055 -0.17123921 0.071185686 -0.046070512 -0.11365709 -0.009208122 -0.012814406
0.028833924 -0.069540516 0.041471004 -0.008572693 -0.12251277 0.048243847 0.07064281 0.12840475
0.068519436 0.1411814 0.027092544 0.044385713 -0.019542534 -0.030794142 -0.006899891 0.03404463
0.09754818 -0.07605224 -0.015532798 -0.021022195 -0.0347268 -0.042411126 0.037701927 0.0501332
-0.020068303 -0.08313364 -0.04656206 -0.0038597214 -0.066237435 -0.010942134 -0.18976852 -0.011294892
0.12352043 -0.074236564 0.07115295 -0.15040371 -0.17799653 -0.13752961 0.069944315 0.06431827
-0.030456422 0.0723511 0.12887278 0.107363686 0.011470879 0.03505842 0.05312855 0.018305162
0.11843272 -0.12586448 0.07296023 0.11822632 0.129439 -0.09844529 0.06734233 0.069811076
-0.088835336 -0.12205722 -0.12269042 0.0632765 0.03275073 -0.07270916 -0.01681445 0.08111072
00000000: f4d6 79bd 8413 12bd d4b2 d1bd 7790 043d
00000010: 12d2 12be 1525 c8bb 3986 173e aed6 703e
00000020: af24 ecbc 4bd1 f93a 9628 0cbd c0c9 733d
00000030: 4e3f 28bd 6079 293d dfda 35bd b23d b0bd
00000040: 52f4 3ebd 4e1c 75bd ffe4 a9bd 0d92 2a3e
00000050: f2f9 a93c b94f f7bb 79f4 af3d 0364 38be
00000060: 9604 83be ad8f a53d 4502 99bd 4507 87bc
00000070: f06d afbc 02a7 cebc 4bb9 b4bd 2f0a 88be
00000080: 4d2c 2b3e 863f a5bd 0e57 71be 8d2e d7bd
00000090: 7e39 a8be b5f3 9abd 8ca0 80bd 8871 a63d
000000a0: 11c9 b63d 46f9 8ebd e076 19bd de29 48bd
000000b0: be14 92bd cec2 c1bd ec7f 0ebe c371 adbd
000000c0: 3538 123d ba8c 08bd 559c 40bb 3d1c 92bb
000000d0: de34 603d 8f81 103e 0653 1c3e 1e47 3dbe
000000e0: 9223 3ebd d3e9 db3c 0e2d bbbd 5db3 3bbe
000000f0: bee2 eb3c e5ea 83bd 2d65 51bd 705d dabd
00000100: b64d 0f3d 57e8 45be 7f10 493d 4303 c43b
00000110: 7224 59be cc76 98bd e9fe aa3d 3a21 11bd
00000120: a493 443e 4311 56bb 7c0d 033e ac87 9e3d
00000130: 16b3 103d c557 37be 0ab3 013d b4b4 493d
00000140: ca9f 9fbc d9d7 3bbe 5201 653d 37e4 073d
00000150: c10b 63bd 63eb a6bc c42c 323e 2de0 86bd
00000160: 31db 91bd 82b7 27be 7ed6 27be 2a78 d5bd
00000170: c75c b1bd ccab 83bd bb64 71bc 51a8 26be
00000180: 3a1f b6bc 6c5a 0bbe 32df 20be ae4d 813d
00000190: fdb8 b3bd bd54 013e fe3f ef3b 532f ba3d
000001a0: 3091 a9bd ea1d 233e 9ed9 1cbe a106 b43d
000001b0: 6c69 0c3d 5d40 2d3d 91ee 17bd ece2 273d
000001c0: 5932 143b a66a e9bd 5072 5cbd f347 07bd
000001d0: d3fe b73d 0f14 783d c68d ef3c 7a5d c2bd
000001e0: b70c e4bd 4677 06be 3f81 053d e42a 623d
000001f0: eb8b c33c ca2c d13d ead6 02be 2f5d 1cbe
00000200: 8b70 ab3d 939e 71be 2116 e7bc 5b74 20be
00000210: fc02 8abe 0ce0 26be ef70 b9bd 23e1 703d
00000220: cdcf c33c d8df 2cbd 0ab6 343d 1df1 c1bd
00000230: ed5b aa3c 1a85 b23c 5b07 863d 01eb 14bd
00000240: a880 393d 1af4 75be 95f6 873d c260 98bd
00000250: e28e 1c3e 57cd 90bd 8b05 433e a4cb ebbd
00000260: ab75 46be ea3d 31be 8cee 23be 1122 03bd
00000270: fe03 d4bd 1159 25bd 0fe4 e3bd 823f 81be
00000280: fef2 c2bb f096 15be 3376 323d 9d68 f7bd
00000290: 0bd5 39be 6601 163e aefb d7bd 3e11 d9bd
000002a0: 5cfa 2c3e a788 6dbd f3c0 7f3e 723a 233e
000002b0: 2a8e 7d3d 28a8 85bd 0bb1 f13c 713a e139
000002c0: 7b68 0b3e 96c3 c6bd c4c2 f03d 3367 0a3d
000002d0: c113 e33d bd4d 57be 21db 14bd 4ef2 8d3d
000002e0: db8a 35bd fd7b f2bd 5559 2fbe cdc9 913d
000002f0: 6fb4 3cbd 0cc5 e8bd aadd 16bc 84f3 51bc
00000300: 1f35 ec3c 426b 8ebd 80dd 293d 7b74 0cbc
00000310: fae7 fabd 579b 453d 2dad 903d 897c 033e
00000320: eb53 8c3d db91 103e 2ff1 dd3c cbcd 353d
00000330: aa17 a0bc ff43 fcbc 7b18 e2bb 6272 0b3d
00000340: 57c7 c73d 47c1 9bbd 477d 7ebc bd36 acbc
00000350: b03d 0ebd 4ab7 2dbd 566d 1a3d 7858 4d3d
00000360: 4866 a4bc f841 aabd dcb7 3ebd 61f3 7cbb
00000370: 7ea7 87bd a346 33bc ae52 42be 360e 39bc
00000380: 47f8 fc3d 5709 98bd a3b8 913d 6e03 1abe
00000390: b944 36be 90d4 0cbe f73e 8f3d 4cb9 833d
000003a0: bf7f f9bc d02c 943d 3af7 033e 7ee1 db3d
000003b0: 5bf0 3b3c 6b99 0f3d 539d 593d b5f4 953c
000003c0: db8c f23d 9ee2 00be 2c6c 953d a420 f23d
000003d0: a88b 043e af9d c9bd c7ea 893d 1cf9 8e3d
000003e0: 4def b5bd 23f9 f9bd 1d45 fbbd 1c97 813d
000003f0: a125 063d 8ae8 94bd 75be 89bc 611d a63d

sequential/conv2d_4/Conv2D f4 [64, 3, 3, 32]
-0.2092497 -0.0033350503 -0.108068146 -0.0022322745 -0.07421827 -0.17493428 -0.036392894 -0.06638878
-0.031684004 0.048650876 -0.13160536 -0.07724611 -0.03673585 -0.14832072 0.0021548432 -0.19840966
-0.019458044 -0.18276222 -0.038754743 0.053514995 0.016258076 -0.110316195 0.09575865 -0.063869335
-0.113748744 -0.05516664 -0.032151654 -0.06256984 -0.097590506 0.039752692 -0.050589897 -0.14678772
0.08554636 -0.025457697 -0.26951632 -0.08049352 0.043661196 -0.2334971 0.10381007 -0.11538318
-0.16020544 -0.032136615 -0.06810398 -0.016587846 0.052459564 -0.11824915 0.04502321 -0.03965121
-0.1372617 -0.107875556 -0.18299174 0.09664747 0.13842434 -0.14208037 0.063326605 0.0013814941
-0.09633853 -0.19849633 -0.1461569 -0.16034369 0.009638323 0.014583211 -0.046047613 -0.038655873
0.030513847 0.031390335 0.05680559 0.017086552 -0.029195879 -0.07109066 -0.13701843 -0.09055667
-0.030860633 0.02267423 -0.09910225 0.017359097 -0.021140331 -0.037149817 0.052449007 0.10856628
-0.11299663 -0.093349494 -0.05820191 0.114255585 0.1528335 -0.07619089 0.0100053195 0.072671644
0.08467025 -0.032032978 0.08744009 0.08788327 0.08286205 0.031007854 -0.15185048 0.03579837
-0.071417935 0.05567578 0.17656136 -0.03783396 0.117880814 -0.033887208 0.10354331 -0.11077706
-0.038992986 0.04651989 -0.046041522 -0.111114755 0.080885135 0.037334513 -0.049860507 -0.11108945
-0.025524903 -0.09847361 0.16325685 -0.11187126 0.063562505 -0.042772897 -0.1356932 0.19223274
0.0039851395 0.019375999 -0.08349006 -0.023586582 0.03726223 0.050452948 0.011063108 0.15743372
0.1460735 0.11246963 0.14535424 0.0012419758 -0.006049751 -0.0340422 -0.12632355 -0.06237208
-0.075707 -0.117950976 -0.020769676 -0.10538081 -0.01946728 -0.12925734 0.12840478 -0.11845496
-0.16739333 -0.1352014 -0.16610461 -0.01555052 -0.04504707 -0.105178505 -0.0017638551 0.0861815
-0.11251787 -0.21471722 -0.114298604 -0.18151976 -0.00346542 -0.065166436 0.20026611 -0.07043897
0.053951114 -0.049318653 0.120306455 0.020456139 0.034870554 0.12692554 -0.13590807 0.0033657483
0.089717045 0.0021501696 0.0016196152 -0.07478515 0.054494396 -0.16556612 -0.0020288057 -0.014795093
0.117406726 -0.10814659 -0.110449046 0.020926863 -0.11804206 -0.055577658 -0.10751397 0.10665137
0.14213417 0.06275632 -0.047139946 -0.034647405 0.082715504 -0.046787277 -0.0035683443 0.0025501652
0.065735 -0.11091137 0.03490455 -0.086681664 0.038462207 0.0007570654 0.118856296 -0.027186329
-0.16985734 -0.07463788 -0.05746604 0.060242936 0.016993307 -0.059661917 -0.018042065 0.060134508
-0.039631736 -0.16568579 0.005377477 -0.035500333 0.008493076 0.07515164 -0.09661396 -0.04899773
-0.024844524 0.004441329 0.082204536 -0.22858718 -0.093404785 -0.0900442 -0.049578674 0.0026356964
-0.024420675 -0.027229074 0.09489847 -0.03682449 0.052160576 0.014072317 -0.018562837 -0.014878452
0.055934813 -0.03100783 0.09659518 0.11084995 0.10625712 -0.078407176 0.10775806 -0.04318358
-0.07736497 -0.06535536 0.0068675946 0.07768283 0.05410531 -0.0715962 0.033295155 0.13298976
0.1206173 -0.13298698 0.017837055 -0.17379954 0.12953238 0.08103642 0.100310996 0.08429402
00000000: 8e45 56be dc90 5abb d552 ddbd 5a4b 12bb
00000010: c0ff 97bd f921 33be b710 15bd d7f6 87bd
00000020: 16c7 01bd 2446 473d 8ec3 06be 3533 9ebd
00000030: 5578 16bd 63e1 17be 4538 0d3b e72b 4bbe
00000040: 7a66 9fbc 0526 3bbe 4bbd 1ebd 8a32 5b3d
00000050: a82f 853c 75ed e1bd 1c1d c43d edcd 82bd
00000060: 1af5 e8bd 6af6 61bd 74b1 03bd 9e24 80bd
00000070: 88dd c7bd b8d3 223d 5a37 4fbd 854f 16be
00000080: ee32 af3d a98c d0bc 0bfe 89be c9d9 a4bd
00000090: 15d6 323d dd19 6fbe 609a d43d 044e ecbd
000000a0: e50c 24be afa1 03bd 197a 8bbd 3ce3 87bc
000000b0: d7df 563d 9c2c f2bd 426a 383d 4f69 22bd
000000c0: 558e 0cbe dced dcbd 3062 3bbe 1cef c53d
000000d0: 1cbf 0d3e 847d 11be 61b1 813d 4013 b53a
000000e0: 234d c5bd 9f42 4bbe 28aa 15be 2331 24be
000000f0: 0fea 1d3c 6cee 6e3c 6c9c 3cbd 9f55 1ebd
00000100: 2df8 f93c 2793 003d faac 683d 19f9 8b3c
00000110: 322c efbc fb97 91bd 8f4e 0cbe c775 b9bd
00000120: 70cf fcbc 4fbf b93c 1ff6 cabd aa34 8e3c
00000130: 7d2e adbc 682a 18bd c5d4 563d ff57 de3d
00000140: c76a e7bd 052e bfbd 2065 6ebd d5fe e93d
00000150: 6380 1c3e f809 9cbd 5aed 233c dfd4 943d
00000160: 9967 ad3d 0335 03bd ca13 b33d 25fc b33d
00000170: 94b3 a93d 2f04 fe3c b17e 1bbe 50a1 123d
00000180: 9143 92bd 490c 643d 80cc 343e c8f7 1abd
00000190: 7f6b f13d 50cd 0abd 840e d43d 15df e2bd
000001a0: 1cb7 1fbd a48b 3e3d 0996 3cbd 2290 e3bd
000001b0: 1ba7 a53d 13ec 183d 883a 4cbd de82 e3bd
000001c0: 9a19 d1bc 88ac c9bd ce2c 273e c21c e5bd
000001d0: 0f2d 823d a232 2fbd 29f3 0abe a9d8 443e
000001e0: c695 823b 6aba 9e3c d6fc aabd a638 c1bc
000001f0: 48a0 183d c0a7 4e3d 0a42 353c 4e36 213e
00000200: 4b94 153e 7a56 e63d bed7 143e cbc9 a23a
00000210: fd3c c6bb d56f 0bbd f65a 01be de79 7fbd
00000220: 460c 9bbd 4890 f1bd 2b25 aabc e5d1 d7bd
00000230: d879 9fbc 095c 04be 8b7c 033e 8498 f2bd
00000240: 2869 2bbe 3c72 0abe 5417 2abe 9cc7 7ebc
00000250: 4783 38bd d467 d7bd 2831 e7ba ed7f b03d
00000260: c56f e6bd d5de 5bbe 6315 eabd 51e0 39be
00000270: 1a1c 63bb fb75 85bd 8f12 4d3e 4f42 90bd
00000280: d8fb 5c3d 5b02 4abd 3b63 f63d a293 a73c
00000290: 6dd4 0e3d c5f8 013e 7c2b 0bbe e393 5c3b
000002a0: 92bd b73d dce9 0c3b 4549 d43a f528 99bd
000002b0: 8435 5f3d 2a8a 29be b6f5 04bb 1e67 72bc
000002c0: f072 f03d f67b ddbd 1c33 e2bd d06e ab3c
000002d0: 09c0 f1bd 66a5 63bd 4930 dcbd 096c da3d
000002e0: 9f8b 113e 6386 803d d115 41bd 70ea 0dbd
000002f0: bf66 a93d 04a4 3fbd e2da 69bb ac20 273b
00000300: 12a0 863d 8025 e3bd 13f8 0e3d 2886 b1bd
00000310: 8c8a 1d3d cd75 463a ee6a f33d ddb5 debc
00000320: 15ef 2dbe bfdb 98bd 8361 6bbd 4cc1 763d
00000330: 8c35 8b3c 0e60 74bd f4cc 93bc 9a4f 763d
00000340: e354 22bd 89a9 29be 8c35 b03b cc68 11bd
00000350: 8b26 0b3c 1ae9 993d 8add c5bd d8b1 48bd
00000360: be86 cbbc 9188 913b da5a a83d c212 6abe
00000370: 024b bfbd 1869 b8bd 0213 4bbd a6bb 2c3b
00000380: de0d c8bc 820f dfbc 215a c23d 47d5 16bd
00000390: 54a6 553d 938f 663c 1711 98bc c0c4 73bc
000003a0: e71b 653d 2204 febc b2d3 c53d 4c05 e33d
000003b0: 559d d93d f193 a0bd 42b0 dc3d 44e1 30bd
000003c0: 8771 9ebd 08d9 85bd 8f09 e13b 2d18 9f3d
000003d0: 889d 5d3d 07a1 92bd 8060 083d 782e 083e
000003e0: 3406 f73d bd2d 08be 041f 923c 82f8 31be
000003f0: 23a4 043e 6cf6 a53d da6f cd3d 58a2 ac3d

sequential/dense/BiasAdd/ReadVariableOp f4 [128]
-0.02367177 0.070379645 -0.022779828 -0.027968857 0.03621875 -0.005130679 0.021775454 -0.014826728
-0.039065864 -0.0061124437 0.021487668 0.018453792 -0.027118364 -0.0045668753 -0.018959148 -0.014408167
-0.0018552179 0.029961973 -0.026579084 -0.025026245 -0.02018835 0.110367335 -0.004959359 -0.016023492
-0.048069216 -0.06609395 0.040723853 0.01856218 -0.019029956 -0.021149278 -0.0073812944 -0.04457343
-0.0064249136 0.0076964637 -0.061190505 -0.039378077 0.020045651 0.0099406075 -0.022176757 -0.009854748
0.09705484 -0.014601094 -0.09942049 -0.06662321 -0.022543008 0.01577038 -0.037600376 0.048523948
-0.04929606 0.04584464 -0.019556498 0.08243641 -0.040947303 -0.013664391 -0.022722613 0.022373462
0.030823031 0.031940028 -0.014608507 -0.024506902 -0.0381772 0.03482656 0.017302807 0.09839819
-0.016997213 -0.009028745 0.024882294 -0.030244708 -0.03814363 -0.025344586 0.039904635 -0.010385544
-0.0071753855 -0.017081408 -0.02355398 -0.03859485 0.03212425 -0.019097514 -0.031756256 0.100518964
-0.034675144 0.020744856 -0.019219741 0.005071101 0.07437809 -0.021426527 0.061067175 0.027178552
0.053839006 0.031339463 -0.066144876 -0.011728906 0.0038232778 -0.03908608 0.0048904275 -0.02845976
0.07842616 -0.019216489 -0.021137126 -0.052633602 -0.010393118 0.0049265944 0.0031411075 0.04264502
0.07440928 -0.050836254 0.06643189 -0.037714563 -0.014137707 -0.07331531 -0.009706012 -0.025044216
-0.013348777 0.03851953 -0.019151527 -0.002807263 -0.0668098 -0.02079361 -0.026767492 -0.019123685
-0.040524326 -0.04788484 -0.01773911 -0.029612036 -0.01492685 -0.04474843 -0.013245749 -0.03463709
00000000: 4deb c1bc 3423 903d c39c babc f21e e5bc
00000010: 1d5a 143d 411f a8bb 7062 b23c ceeb 72bc
00000020: 8703 20bd e54a c8bb e806 b03c 682c 973c
00000030: 5527 debc baa5 95bb 3750 9bbc 3c10 6cbc
00000040: c82a f3ba d072 f53c 61bc d9bc d703 cdbc
00000050: 0a62 a5bc 4508 e23d 1e82 a2bb b343 83bc
00000060: 3ae4 44bd 445c 87bd 0ece 263d b70f 983c
00000070: b6e4 9bbc 4041 adbc c9de f1bb a192 36bd
00000080: 1588 d2bb 9e32 fc3b e5a2 7abd e84a 21bd
00000090: c736 a43c eedd 223c 08ac b5bc cf75 21bc
000000a0: b0c4 c63d 6d39 6fbc f89c cbbd c071 88bd
000000b0: 1dac b8bc e230 813c da02 1abd 0cc1 463d
000000c0: aaea 49bd 97c7 3b3d f334 a0bc 6cd4 a83d
000000d0: 5cb8 27bd 9ce0 5fbc c624 babc 8d48 b73c
000000e0: 9580 fc3c 8cd3 023d 8558 6fbc b3c2 c8bc
000000f0: b25f 1cbd 4ca6 0e3d 9ebe 8d3c fe84 c93d
00000100: bd3d 8bbc 4ded 13bc f4d5 cb3c c0c3 f7bc
00000110: 7f3c 1cbd 739f cfbc 0b73 233d 2128 2abc
00000120: 7f1f ebbb 4fee 8bbc 47f4 c0bc a215 1ebd
00000130: b894 033d 6472 9cbc d912 02bd e3dc cd3d
00000140: 8607 0ebd 1ef1 a93c b872 9dbc 7a2b a63b
00000150: 8a53 983d af86 afbc 9321 7a3d 8ea5 de3c
00000160: 4a86 5c3d cf5d 003d f776 87bd 992a 40bc
00000170: f58f 7a3b ba18 20bd e13f a03b 7124 e9bc
00000180: e59d a03d e66b 9dbc c427 adbc 5596 57bd
00000190: e547 2abc 456f a13b 0adb 4d3b 8bac 2e3d
000001a0: e563 983d ad39 50bd 710d 883d 967a 1abd
000001b0: d7a1 67bc 5626 96bd f705 1fbc 8729 cdbc
000001c0: d4b4 5abc a8c6 1d3d aae3 9cbc 0ffa 37bb
000001d0: 94d3 88bd 5c57 aabc 8047 dbbc 46a9 9cbc
000001e0: d6fc 25bd e522 44bd 9c51 91bc f194 f2bc
000001f0: bf8f 74bc 214a 37bd b304 59bc 9fdf 0dbd

sequential/dense_1/BiasAdd/ReadVariableOp f4 [36]
0.042937465 0.043429874 -0.014257046 -0.04997783 0.02152505 -0.049364727 0.008359837 0.031154364
0.09118208 0.002190911 -0.08610419 0.013758154 0.01001994 -0.022402124 -0.008482105 0.009607802
-0.11709509 -0.049289886 -0.035207886 -0.027393725 0.111551955 -0.00018216371 -0.054335136 0.056628477
-0.06835322 -0.065690905 -0.036965773 0.0471105 -0.019730125 0.06709401 0.051583927 0.036773175
0.033728473 -0.0017400953 -0.010214199 0.0446931
00000000: 32df 2f3d 86e3 313d 6396 69bc 8eb5 4cbd
00000010: 4d55 b03c ab32 4abd b3f7 083c 7037 ff3c
00000020: acbd ba3d 6395 0f3b 6557 b0bd e169 613c
00000030: ad2a 243c a984 b7bc 87f8 0abc 0b6a 1d3c
00000040: 8dcf efbd 31e4 49bd 2536 10bd ce68 e0bc
00000050: 5a75 e43d 3303 3fb9 858e 5ebd 43f3 673d
00000060: c6fc 8bbd f488 86bd 6c69 17bd f1f6 403d
00000070: 12a1 a1bc 9668 893d ab49 533d 789f 163d
00000080: de26 0a3d e913 e4ba 7559 27bc 1d10 373d

sequential/dense/MatMul f4 [128, 256]
-0.029542448 0.108344905 -0.09076457 0.080797315 -0.0051496793 0.04669493 0.08296832 -0.09467938
0.04785541 0.03755472 0.14560786 0.01954909 -0.11172476 -0.03954432 -0.024662346 0.099266574
0.06389679 -0.022419233 0.009699669 -0.11012762 -0.06323496 0.024428187 0.06521929 0.17883912
-0.034599956 0.007926913 0.085820936 0.0012743582 -0.0969676 0.1521344 0.12988456 0.15681256
0.0033665898 -0.0012665492 -0.109596334 0.077129744 -0.027387956 -0.1272389 0.033297297 -0.106717594
0.11305423 0.009667285 0.03708683 -0.061256457 -0.05451869 0.06629509 -0.011428568 0.06310065
-0.15390426 0.19349293 -0.18717118 -0.030668745 -0.04165358 0.14947696 -0.003854592 -0.17161502
-0.06748275 0.13167827 0.031585023 -0.039772388 -0.03793152 0.085547514 0.10873261 -0.08577204
0.015959216 -0.05021899 0.101456985 0.074049555 0.046453953 0.040179502 0.18316138 0.04995755
0.17167777 -0.027516536 0.03597741 0.011258174 0.090966165 0.044396587 0.14439675 -0.136746
0.017809315 0.16122276 0.09063093 0.020422926 -0.084199 0.16503663 0.12955956 0.16291381
-0.09189065 0.059812445 0.13477552 0.17770639 0.06660173 -0.009038584 0.16782747 0.10926176
0.0024581698 0.038770176 -0.11461372 0.117828846 -0.00077141414 0.0156060485 0.008629638 -0.15853281
0.024300305 0.16959769 0.083124325 -0.102928735 0.042402294 -0.07681201 0.023886958 -0.04751496
-0.010830905 0.10667362 -0.1599247 -0.026371434 -0.07075912 0.08452291 0.031345513 -0.005699856
-0.1794671 -0.14359014 0.05705912 0.08944125 0.114935905 0.03878099 0.046183493 -0.14538364
0.05264648 0.0485173 0.10067837 0.038994912 -0.030866267 -0.14610529 -0.12433142 0.037294865
-0.1536506 -0.14332055 0.00968154 0.01837595 -0.03991791 0.015720855 -0.07270077 0.09147962
-0.17421424 -0.01914153 -0.12369314 -0.031461727 0.021361828 -0.20483927 -0.073047586 0.05346289
-0.12696892 -0.1414151 0.16301304 -0.12164661 -0.17081517 -0.028999297 -0.090369 -0.06906924
0.077141754 -0.047545217 -0.05181199 -0.009010628 -0.11490308 0.07127557 -0.033740368 0.119828895
-0.0053223935 -0.04759034 0.18062793 -0.039514408 0.06343675 0.01997001 0.06499871 -0.0784406
0.062384475 -0.063142955 0.03239192 -0.019114412 -0.08849891 -0.13154347 -0.060128465 -0.057782516
-0.00532939 0.08736801 -0.31951183 -0.16109496 -0.0339504 -0.15572555 -0.054031834 -0.181779
0.1187788 0.05746705 -0.041730445 0.21802543 -0.007698901 -0.17766504 -0.08244027 0.20026438
0.010469146 0.05725315 -0.08550241 0.09310774 0.14475262 0.044789806 -0.2745345 -0.11308823
-0.057991583 0.18055621 -0.022871707 0.048599385 -0.04028292 -0.018240562 -0.08929804 0.114149384
-0.07325375 -0.18648212 0.012313113 0.10284159 0.13266574 -0.1677809 -0.065209486 0.0058959904
-0.12511772 0.03659368 -0.07140646 0.04274811 -0.008529276 0.07537898 0.079329684 0.079975754
0.087023005 0.024100898 0.12530197 0.12937193 0.062914655 -0.051373854 0.08449358 -0.01793439
-0.03709091 -0.08474422 0.058190282 0.100818194 -0.0068260226 0.04324111 0.09473904 -0.15672785
-0.13056096 -0.17518023 -0.11078516 0.12707435 -0.069193006 -0.063830756 0.022086428 0.00011799467
00000000: 0103 f2bc efe3 dd3d c6e2 b9bd 1079 a53d
00000010: a4be a8bb 2f43 3f3d 4beb a93d 43e7 c1bd
00000020: 0904 443d fad2 193d 3a1a 153e 6a25 a03c
00000030: f3cf e4bd 3af9 21bd b008 cabc 464c cb3d
00000040: 52dc 823d 8aa8 b7bc 5ceb 1e3c 978a e1bd
00000050: 5581 81bd 9f1d c83c b191 853d 9a21 373e
00000060: afb8 0dbd e2df 013c e3c2 af3d 5e08 a73a
00000070: f396 c6bd 1fc9 1b3e 7500 053e 7993 203e
00000080: 01a2 5c3b 5702 a6ba 0b74 e0bd 33f6 9d3d
00000090: b55c e0bc ea4a 02be bf62 083d c18e dabd
000000a0: fa88 e73d 8863 1e3c 5ce8 173d 0de8 7abd
000000b0: fd4e 5fbd b8c5 873d e33e 3bbc ea3a 813d
000000c0: 1499 1dbe 0323 463e cda9 3fbe 053d fbbc
000000d0: f29c 2abd 7d10 193e 539d 7cbb d9bb 2fbe
000000e0: 6534 8abd abd6 063e 4c5f 013d 5fe8 22bd
000000f0: 155e 1bbd 8933 af3d 34af de3d 40a9 afbd
00000100: e7bc 823c 6db2 4dbd aec8 cf3d 4ba7 973d
00000110: 8046 3e3d 4393 243d a88e 3b3e 4aa0 4c3d
00000120: 4ccc 2f3e 5c6a e1bc 0c5d 133d 3474 383c
00000130: 784c ba3d 32d9 353d bedc 133e 2507 0cbe
00000140: d7e4 913c 9417 253e b69c b93d fb4d a73c
00000150: 8670 acbd 5dff 283e 43ab 043e e1d2 263e
00000160: 2a31 bcbd e5fd 743d 9802 0a3e aaf8 353e
00000170: 7d66 883d 9216 14bc f7da 2b3e a1c4 df3d
00000180: 3f19 213b 7acd 1e3d 99ba eabd 4050 f13d
00000190: ba38 4aba 83b0 7f3c 5363 0d3c 6d56 22be
000001a0: 6f11 c73c 04ab 2d3e 163d aa3d 4dcc d2bd
000001b0: 07ae 2d3d 9d4f 9dbd 95ae c33c 0c9f 42bd
000001c0: 1c74 31bc b377 da3d 4dc3 23be e808 d8bc
000001d0: 28ea 90bd 591a ad3d 2764 003d dcc5 babb
000001e0: 39c6 37be 4b09 13be d3b6 693d f92c b73d
000001f0: 8463 eb3d d1d8 1e3d e72a 3d3d 73df 14be
00000200: d6a3 573d 14ba 463d 7630 ce3d 21b9 1f3d
00000210: 41db fcbc a09c 15be 79a1 febd 80c2 183d
00000220: 9556 1dbe 9fc2 12be 529f 1e3c 2989 963c
00000230: f680 23bd 06c9 803c 24e4 94bd ab59 bb3d
00000240: 3865 32be b3ce 9cbc d452 fdbd 03de 00bd
00000250: 00ff ae3c 63c1 51be f999 95bd e7fb 5a3d
00000260: 2404 02be 1fcf 10be e4ec 263e dc21 f9bd
00000270: 2cea 2ebe ef8f edbc 6213 b9bd 2c74 8dbd
00000280: 7ffc 9d3d c6be 42bd cf38 54bd 50a1 13bc
00000290: 4e52 ebbd edf8 913d 5733 0abd da68 f53d
000002a0: 7967 aebb 17ee 42bd 87f6 383e dcd9 21bd
000002b0: 20eb 813d 2598 a33c 0b1e 853d 77a5 a0bd
000002c0: dd86 7f3d 1851 81bd 64ad 043d d495 9cbc
000002d0: eb3e b5bd 55b3 06be 4449 76bd 5cad 6cbd
000002e0: 2aa2 aebb 00ee b23d 0e97 a3be 14f6 24be
000002f0: 930f 0bbd 8576 1fbe 7c50 5dbd 4624 3abe
00000300: 4d42 f33d 9262 6b3d 8bed 2abd 0f42 5f3e
00000310: 1047 fcbb d3ed 35be 72d6 a8bd 1b12 4d3e
00000320: c886 2b3c 4782 6a3d e31b afbd 45af be3d
00000330: 083a 143e 8475 373d c98f 8cbe cd9a e7bd
00000340: 9588 6dbd bae3 383e 725d bbbc 2610 473d
00000350: b4ff 24bd 3b6d 95bc e4e1 b6bd 27c7 e93d
00000360: 1006 96bd 2bf5 3ebe f0bc 493c 9d9e d23d
00000370: 87d9 073e c2ce 2bbe 8d8c 85bd 2733 c13b
00000380: dc1e 00be 41e3 153d 8d3d 92bd a418 2f3d
00000390: 60be 0bbc 4b60 9a3d 9a77 a23d 54ca a33d
000003a0: 1e39 b23d 3f6f c53c 294f 003e 137a 043e
000003b0: 66d9 803d 646d 52bd f80a ad3d 24eb 92bc
000003c0: a3ec 17bd 618e adbd ef58 6e3d c579 ce3d
000003d0: d4ac dfbb 971d 313d 8b06 c23d 447d 20be
000003e0: c6b1 05be 7262 33be 54e3 e2bd c71f 023e
000003f0: 10b5 8dbd b3b9 82bd 99ee b43c e873 f738
